models/2022-01-04-21:43:48.092987-epoch-7.pt (torch, 66251 bytes, 30 tensors)

encoder.0.lstm.weight_ih_l0 f4 [32, 3]
00000000: ba4c e2bd c60a 86be 80a5 8d3d 9ddd f83e
00000010: 38ea e2bc 45ba 18bf cb3b 06bf 245f 523d
00000020: 19c7 283f ad43 89bd 6949 d7be c148 e43e
00000030: a8b1 773e e896 da3e ec32 3b3e c9a8 e13d
00000040: a59c 633e 3b8b 02bf c2ee 833e e953 943f
00000050: 42f5 b23e 5112 b3bc 356c 0cbf dcbe 2ebf
00000060: dc28 8d3e cf8f 053f 5da6 1d3f 4ca1 1c3f
00000070: 7516 de3e 8bad 403e efb2 61bd 7ff3 21bf
00000080: 2d1a 12bf 4c39 213f 526e 153f 8e8c 64bf
00000090: f2c2 78be bb38 393f 8539 bfbd c0d9 ab3b
000000a0: 37ee cf3e dc3e d53e f0d0 34bf ec7a 0abd
000000b0: 93a2 8a3e 0eb8 083e 1643 ce3e 2642 4c3c
000000c0: a765 4fbf b787 15bf d70d 11be e7d7 6a3d
000000d0: 7181 a83e e504 31be b9b3 40be aca5 b13d
000000e0: e9e2 91bf 9f08 0a3f 1a09 08bf c86e 863e
000000f0: 36f9 99b9 3f08 5a3f 3a84 203e 36ab 07be
00000100: c18e 153f ee2b 8a3c 7773 f4be a3ea 86be
00000110: c846 b5be a256 533c e6c9 ccbe 91b5 ea3e
00000120: f7ce 7e3d 11ce 1d3f 42cf 80bf 2a15 61be
00000130: a433 fb3e 3110 a13e a869 623e 3c62 13bf
00000140: ba16 afbc 0713 d13d 41ff 93be b7cc b23e
00000150: 3483 3cbe e27d 683f f7eb 5ebe 2982 9d3e
00000160: a296 0a3f 0312 51bf 099e 593f 975c b63e
00000170: 9340 983e 9df5 b83e d3dd c7bd 37b6 a0bd
-0.11049791 -0.26180094 0.06916332 0.48606578 -0.027699575 -0.59659225 -0.52434987 0.051360264
0.659288 -0.06702361 -0.42048195 0.44586757 0.24188864 0.42693257 0.18281144 0.11018521
0.22227724 -0.509937 0.25768095 1.1588107 0.34952742 -0.02185932 -0.5485261 -0.6825998
0.27570236 0.5217256 0.61581975 0.6118362 0.43376508 0.18816201 -0.055102285 -0.6326217
-0.5707119 0.62978053 0.5837146 -0.8927697 -0.24293116 0.7235219 -0.09337143 0.0052444637
0.4061143 0.4164952 -0.70631313 -0.033808634 0.2707716 0.13351461 0.40285558 0.012466943
-0.81014484 -0.5841021 -0.14165436 0.057334807 0.32911256 -0.17287023 -0.18818559 0.086741775
-1.1397372 0.53919405 -0.5313889 0.26256394 -0.0002936811 0.8516883 0.1567544 -0.13248906
0.5842095 0.01686665 -0.47744343 -0.2635089 -0.35405564 0.012899073 -0.39997786 0.4584165
0.062209096 0.6164256 -1.006325 -0.2198073 0.49062836 0.31457666 0.22110617 -0.5757177
-0.021373142 0.10208707 -0.2890568 0.3492181 -0.18409425 0.9081708 -0.21769701 0.30763367
0.541361 -0.8166811 0.8500677 0.35617515 0.29736766 0.36124888 -0.097591065 -0.07847255

encoder.0.lstm.weight_hh_l0 f4 [32, 8]
00000000: 5779 cdbe c23d 2fbe 1634 7cbe 442e d3be
00000010: 7013 d5be 8959 223c 2ac6 bdbe 2652 1d3f
00000020: fb25 033f 631f a7be 6ec8 803f 9cc5 753c
00000030: 5d8b c13d 79de b3be fa84 893e d229 36bb
00000040: 8128 2b3e 4544 4c3e af04 9bbf b1a0 d73d
00000050: 6211 5f3f 2629 873f 14b3 333f 8c5c ee3e
00000060: 66c1 b03c 5722 0fbf e5ed b73e 7d2b b93e
00000070: 70c8 be3d 2c14 273d 352c 06bf affe 05bf
00000080: a04e 14be 9a55 483c eec1 4a3d c4ed 91be
00000090: 950f 2a3e eb33 14bd e711 98be 2227 f63e
000000a0: 405e 013f 6059 653d 816a 413e 74a9 f7be
000000b0: 3fff 063e 9ba0 1abf ea33 63bd 3030 0cbe
000000c0: 3938 8c3f a4c3 dbbd 1ca1 3e3e 8c4b 283c
000000d0: 73c2 fbbe e7d6 90bf 2c35 b03f 38ef ca3d
000000e0: 6b04 05bf 9ffe c8be ce4d 8e3d 2698 6e3e
000000f0: ffdd ddbd f9ed 5c3f 59ca a5be 161a 6ebf
00000100: cf2d babd 01b3 a63e f845 b2be 5338 99bb
00000110: d90f 2bbd cf38 0d3f c875 913e 97a5 d13e
00000120: 04d9 83bf 9cff 513e f626 373e 767e 8e3f
00000130: 9d1a f3be 7f90 5e3e d650 ca3e 7e73 383e
00000140: 81bd 063f 6c9e 9abc 00d7 09bf 11a4 c4be
00000150: 78fb 08bd d3b8 3c3c 41ea 0f3d a8c7 703e
00000160: 9e60 033d 3137 8fbf be95 183f a7d2 dcbe
00000170: c225 f9bd b8cf 293c 6241 6cbe e9bc aebe
00000180: f91b 51bf dd6b 463f 8418 82be a161 3a3f
00000190: 3ee5 203f 6706 623f 6374 cd3d 22e3 dcbd
000001a0: 41c6 38bd 25b4 31be a787 e7bc 7017 a4be
000001b0: 3ab2 333e 2e62 613e f073 b4be 13d5 093d
000001c0: bc30 02bf f4f2 863e 56c3 e9be 636c 273f
000001d0: bf04 283f 774c 31bf 65c7 2bbf 133f f33e
000001e0: 7d3d 863e 49c9 49bf 6434 403e 5fbf 003f
000001f0: 1c43 08bf c9b7 bdbe 22b8 a0be b7ad 3f3d
00000200: 660b 5a3e 6ab6 273f 62fc aa3e bca2 5abe
00000210: 0192 0dbf 9d4e a23e 1776 5bbe 0bb4 14bf
00000220: e71c e3be db1e 483e 35b9 1abf 4ed0 b2be
00000230: 8dc5 a83f 194f 013f 769f 143e 0e2e 4c3e
00000240: f1b7 373f e670 dd3e 9b5f 293f 85ec 77bf
00000250: 2110 18be 7192 8bbe d177 d1be 35a5 9bbe
00000260: 4e90 10bf 8dc7 e3be 30ed 4cbe c05a c43e
00000270: 9167 843d e68f 893d a350 0fbf 0295 07bd
00000280: 8a2c a9bd 1c0c e53e fa66 143f 0798 91be
00000290: 232a 963e fb83 b4be bada 2abe adc1 5fbe
000002a0: de79 69be 42ae d0be 4530 4fbf 25fd 2cbc
000002b0: e9f1 903e 9153 3cbf 2bee 2a3f 2a48 7d3c
000002c0: 9c31 d5be fe4f 0b3d fe4c a83d 2252 673f
000002d0: 0037 6abe 10e3 63bf da60 68bf 2dd9 603f
000002e0: f162 933c 9c8b 36be 38b9 f33e 5973 fabe
000002f0: 557c af3c 1ad8 213e 08a5 47bf 45a1 44bf
00000300: ed36 583d 01ee d13e 8c5f 5dbe 7f72 6bbe
00000310: 048b a8be 09cf 813e cbf0 7bbe e39a 42be
00000320: 1c9f ef3e 3c80 02be 7c29 7bbe bc1f 263f
00000330: 124e 9abe 9a34 13bf a840 893e 57fe e53e
00000340: c49c 51be 9800 07bf b0f3 0c3f 91ee 0abe
00000350: da21 b03d 8e39 35bc aa6f dfbe 5800 33bd
00000360: 535f ecbe 0506 2bbc 605e 5d3e 7f4b 3dbe
00000370: e7f9 973d 271c 443f c94d 6abf 2342 8ebe
00000380: 09ec dd3c ff6a 3f3c 4b04 cc3e 2b31 59bd
00000390: b027 82be c82c cfbd 89e4 d93e 6e5d 30be
000003a0: 549c 933d 529a 073d 1ae8 443f f41c 33bf
000003b0: 93c1 dd3e 4ea8 f0bd 123e bebe ca38 313e
000003c0: 279d 963c c096 9b3e 162f cbbe 646c be3e
000003d0: 55e7 253e ff1b 16bf 7cd0 473f ceed 903f
000003e0: 28e2 09bf 9f70 d6bd 6f6e 50bd 1136 233f
000003f0: 1dfc 4f3e ae49 283f 5174 6f3e c947 9dbf
-0.40131637 -0.17113402 -0.24629244 -0.41246235 -0.41616392 0.009909042 -0.3706525 0.61453474
0.5122983 -0.32641134 1.0061166 0.015000727 0.094504096 -0.3513067 0.26859266 -0.0027795923
0.1671467 0.19947918 -1.2110804 0.10528696 0.871359 1.0559433 0.70195127 0.46554983
0.021576595 -0.55911773 0.35923687 0.3616599 0.09315574 0.04079072 -0.52411205 -0.5234174
-0.14483118 0.01222744 0.049501352 -0.28501713 0.16607507 -0.036182325 -0.29701158 0.4807673
0.5053444 0.055993438 0.18888284 -0.4837147 0.13183306 -0.60401314 -0.05546943 -0.13690257
1.0954658 -0.10730675 0.18616146 0.010271918 -0.4917179 -1.1315583 1.3766227 0.099089086
-0.51959866 -0.3925676 0.06948434 0.23300228 -0.10833358 0.8630062 -0.32380942 -0.93008554
-0.090907685 0.32558444 -0.34819007 -0.004675904 -0.04176316 0.5516481 0.28410172 0.40946648
-1.0300603 0.20507663 0.17885956 1.1132343 -0.47481242 0.21734808 0.39514798 0.18012807
0.5263291 -0.01887437 -0.5384369 -0.38406423 -0.033442944 0.011518675 0.03513551 0.23513663
0.032074563 -1.1188718 0.5960349 -0.43129465 -0.12165405 0.010364465 -0.23071817 -0.34128502
-0.8168331 0.77508336 -0.2540933 0.7280522 0.62849796 0.8829102 0.10031965 -0.1078551
-0.045110945 -0.17353876 -0.028262926 -0.3204913 0.17548457 0.22010109 -0.35244703 0.03365047
-0.5085561 0.26357234 -0.45656842 0.6539976 0.6563224 -0.692573 -0.67101127 0.4750906
0.26218787 -0.7882276 0.18769985 0.5029201 -0.532274 -0.3705428 -0.31390482 0.046796527
0.2129341 0.65512717 0.33395678 -0.2135114 -0.5530091 0.31700602 -0.21431766 -0.58087224
-0.44357988 0.1954302 -0.60438854 -0.3492455 1.3185288 0.5051132 0.14513955 0.19939443
0.7176505 0.43250197 0.6616151 -0.96845275 -0.14849903 -0.27260163 -0.40911725 -0.3039948
-0.5647019 -0.44488183 -0.20012355 0.38350487 0.06465066 0.067168996 -0.55982417 -0.03310109
-0.08260448 0.447358 0.5796963 -0.284363 0.29329023 -0.35256943 -0.16685 -0.21851225
-0.22800395 -0.40757948 -0.8093303 -0.010558401 0.28309563 -0.7356501 0.66769665 0.0154591
-0.4163941 0.034011833 0.0821781 0.903597 -0.22872543 -0.89018345 -0.90772784 0.87831384
0.017991515 -0.17826694 0.47602248 -0.48916128 0.02142159 0.15805092 -0.7798619 -0.7680858
0.052786756 0.41001895 -0.2161848 -0.22992896 -0.3291856 0.25353268 -0.24603574 -0.19004397
0.46801078 -0.1274423 -0.24527544 0.6489217 -0.30137688 -0.5750214 0.2680714 0.44920608
-0.20469958 -0.5273528 0.5505934 -0.13567568 0.08600207 -0.011061085 -0.4363988 -0.0437015
-0.46166477 -0.010438447 0.21618032 -0.1848583 0.07420712 0.7660546 -0.9152494 -0.27784833
0.02709009 0.011683225 0.39847025 -0.053025406 -0.25420904 -0.10115963 0.4255717 -0.1722314
0.072075516 0.033106156 0.7691666 -0.69966054 0.43311748 -0.117508516 -0.3715673 0.1730682
0.018385483 0.3038845 -0.3968436 0.3719207 0.16201527 -0.5863647 0.78052497 1.1322572
-0.5386071 -0.104706995 -0.050886568 0.63754374 0.20311017 0.65737426 0.23384215 -1.2287532

encoder.0.lstm.bias_ih_l0 f4 [32]
00000000: 8028 c6be 781c cfbe 91af 50bd 8068 3dbe
00000010: 59ee c2be 4db0 d83d 703b 2d3e 10aa 5b3f
00000020: 6994 313f b08d 613f d81b e93e 0666 113f
00000030: f76d 593f 400e 0ebf a2f0 12be 1c15 febe
00000040: d896 b43e a70f 75bd 593d afbe 0f76 1a3e
00000050: edc5 1cbe 57fc 6abd fe43 fb3e e3e0 1b3e
00000060: 3e8c 313c 2504 b2be 0806 01bf 4b8a 8fbd
00000070: bb1f 85be 3efa e6be 3aec 353f f5ea 9f3f
-0.38702774 -0.40451407 -0.050948683 -0.18496895 -0.3807247 0.10580502 0.16917205 0.8580637
0.6936708 0.8810682 0.45529056 0.567963 0.8493342 -0.55490494 -0.14349607 -0.4962548
0.35271335 -0.05982938 -0.34226492 0.15084098 -0.15309878 -0.057369556 0.4907531 0.15222506
0.010836659 -0.34768787 -0.5039983 -0.07008799 -0.2600077 -0.45112795 0.7106358 1.2493578

encoder.0.lstm.bias_hh_l0 f4 [32]
00000000: 18c2 04bf fc83 22be 5174 803e bc11 3bbe
00000010: 94d8 06bf 559e dabe 9904 92bd 77b9 393e
00000020: 6071 9e3e 4834 313f fcf0 e03e e3d0 a33e
00000030: cf6b e33e 9f02 12bf 42ac d5be 1076 c4be
00000040: a3b9 28bd efd7 ffbc 51d3 c3bd 442c 91bd
00000050: 2548 0a3d 0067 aabe 122b 253e 3260 b13d
00000060: d935 cabd ad45 d4be 5097 dabe 0cb7 20be
00000070: 01e9 5cbe e0c3 053d 8ced fa3e 6fc0 833f
-0.51858664 -0.1587066 0.25088742 -0.18268484 -0.5267422 -0.42698923 -0.07129783 0.18137155
0.30945873 0.692204 0.43933856 0.31995305 0.4441819 -0.5703525 -0.41732985 -0.38371325
-0.041192662 -0.031230895 -0.0956179 -0.07088521 0.03376021 -0.33281708 0.16129711 0.08660926
-0.09873552 -0.41459408 -0.42693567 -0.15694827 -0.21573259 0.032657504 0.4900936 1.0293101

encoder.0.lstm.weight_ih_l0_reverse f4 [32, 3]
00000000: 9a05 c63e f374 9cbe 3be3 613f 1279 ba3e
00000010: f72e e33e db9f 7abe 7c8f 2c3f d9b3 e03e
00000020: 085c 1bbe 1622 043e d951 13bf 25ee 503f
00000030: 7bf7 773e 95fa 46bc 4d4a 5d3e 6aca f33f
00000040: 41fb 2a3f d380 1cbf d035 a73e 0a6b 8b3d
00000050: 678d 773e 226b 433f 120e 2b3f 1beb 1d3f
00000060: e741 263f 6409 e83e 16a7 c0be 3b7c 563f
00000070: 0bbb dabe c4ff 68bf be24 803e e8b3 40bf
00000080: 8eab b3be 87e7 08bd 9229 15be 1f23 823f
00000090: dac2 b7be bcbf ccbe 936a 5c3d d252 853d
000000a0: 3a36 063e 1d31 11bf 358b c2be 3692 0dbf
000000b0: 91b0 22bf 622e cabd cf5d e2bd 1761 1f3e
000000c0: e515 8dbf f146 e7be 5e5b 93be 9e7a c43e
000000d0: a446 753e 841e 303f 7214 bbbe 132c d2be
000000e0: 32ef 30be 159a bd3e c227 1bbf a545 113e
000000f0: c080 e43e ebc2 74be c2e1 a33e f995 4c3f
00000100: 41b8 e93d 9a02 0cbf 9618 11bb c650 933d
00000110: 28a2 1640 6a25 1bbf 62ed 503d a84d abbe
00000120: 4bc0 df3d bb0e 6a3f 2c2b c03e fd78 9bbd
00000130: e9b0 1d3e 2794 243e 874e d1bd 1dba d23e
00000140: bbb6 0e3d f508 653e e4bb 073e f548 923e
00000150: 484b 2d3f a5e0 a53e e435 da3e b7e6 9c3f
00000160: 4d00 b43e 6405 373f 0dfe cb3e a01a c1be
00000170: 5868 c53e 9084 e73e ebf2 843f 7a33 cf3e
0.3867615 -0.30557975 0.8823735 0.36420494 0.4437177 -0.24475043 0.6740644 0.43887213
-0.15171826 0.12903628 -0.57546765 0.8161338 0.242155 -0.012144704 0.21610375 1.9046147
0.66789633 -0.6113407 0.32658243 0.068075255 0.24175034 0.76335347 0.66818345 0.6168687
0.6494431 0.45319664 -0.37627476 0.8378331 -0.42720827 -0.9101527 0.25028032 -0.75274515
-0.35091823 -0.033423927 -0.14566639 1.0166968 -0.35890847 -0.39990032 0.053812575 0.06509937
0.13106623 -0.56715566 -0.37996832 -0.55301225 -0.6355067 -0.09872128 -0.11053049 0.1556438
-1.1022307 -0.45171311 -0.28780645 0.383748 0.23952729 0.68796563 -0.36539036 -0.4104925
-0.17278746 0.37031618 -0.6060754 0.14186724 0.44629478 -0.2390248 0.32008177 0.7991634
0.11412097 -0.5469147 -0.0022139899 0.07193141 2.3536472 -0.60603964 0.051007636 -0.33457685
0.10925349 0.91428727 0.37532938 -0.07591436 0.15399517 0.1607214 -0.10220056 0.41157618
0.034842234 0.22366698 0.13255268 0.28571287 0.67692995 0.32397953 0.4261924 1.2257909
0.3515648 0.714926 0.39842263 -0.37715626 0.3855617 0.45218325 1.0386633 0.4046896

encoder.0.lstm.weight_hh_l0_reverse f4 [32, 8]
00000000: 02ac 133e d997 13bf cd5b 333e 7731 7fbf
00000010: ed62 d03c b49f 263f 3702 2a3f cf18 aabe
00000020: d21c 0c3f 19e8 03bf f213 45be d3e4 c63c
00000030: 5ea6 16bf 7931 15be cedc 0b3f 2ff7 143e
00000040: a17d ee3e 0050 6abf ba91 50be 1b34 b73e
00000050: 64e8 563f 4e08 82bd 8ecd 94be 0867 7bbf
00000060: 9094 ee3e f9e6 913d b445 46be 835f 4d3f
00000070: 22aa 083f 7c77 d33e e8ae 0e3e 8869 01bf
00000080: 9511 6d3e b50a 26bf b6d5 04bd b78c 233f
00000090: 5676 c23d e9a7 edbd f4c0 09bf ceca 7dbe
000000a0: 42d1 4f3f 0007 85bf 2e73 053f a82a 78bf
000000b0: 17e0 06bf e2a1 813f ab85 ce3e 0af7 88bf
000000c0: 763e 08bf c067 8abf 9bdc 8f3e a288 23bf
000000d0: 29e1 a63e 980b 45bf 8ee6 d83e b3cd c03e
000000e0: 099f 453f 6d1a 87bd f0ee 0a3e 8b39 993b
000000f0: 95be 973f 29c7 ea3e 170c 4dbe 8253 47bf
00000100: 3d02 00bd 7339 a13d c077 38bf 7b3e 70bf
00000110: 7582 983e f449 0fbe c90e 343e c71a 3fbf
00000120: 7b96 d83e 0b08 853e 8c0a 75be cac6 72be
00000130: c9aa 24be 37dc d5be 5305 32bf b0aa 46bf
00000140: 8a76 2abb 5180 d4be 02b8 0bbf aa74 c23d
00000150: c9ad 313e 638e d9be 339b abbd 56f6 8dbf
00000160: 9f35 cebe 12f8 da3e 333f 123e 7331 fb3e
00000170: 51c1 393f 3f54 493e abe8 a83c 6d97 073f
00000180: 2c34 2ebe affa f23d 229f bfbd bb17 92be
00000190: a618 0bbf 65db 08bf 19b8 cfbe 346e 96bd
000001a0: d0b1 5d3e f692 0bbf fdba 863e 4919 8ebe
000001b0: 6f14 d93e 8de0 d23e 48d7 2dbf 903c 4fbf
000001c0: 2b94 6a3f 5e23 b7be e897 27bf 358d 20bf
000001d0: 70ab 32bf 2b41 3cbd 4b34 d33d b970 7dbf
000001e0: b676 203e f121 01bf 1c4a 35bf b94e 79be
000001f0: b380 ba3e 402d 4ebf b37c 6ebc 457c 09bf
00000200: c5b7 b7be ec5f 3d3f f7ad bbbe 1526 b63e
00000210: 4e28 f9be 4f3b 5c3e 3b61 65be 213c 813c
00000220: fb5b 07bf d12d fcbd 29dd 333f bcfe 843d
00000230: f1f8 2bbf f33f a83e 4d8d 6cbf 7a52 1dbf
00000240: cef9 63be f184 bebe d6e8 64bd f54b 193d
00000250: 8ee5 d13e 3e83 093f d414 13bf 4022 9bbe
00000260: 0542 903d 29e8 253e 41d5 1b3e 60b4 4dbd
00000270: 5e27 843e 1a7a 673d 863b 84be 7991 fabd
00000280: ac76 5fbd fa71 82be cbdf 21be 432c 34be
00000290: 9929 0dbf a663 203e 4160 e13e 37af 92be
000002a0: f519 653f 35f3 84bf f7fa 4f3e 6d40 8ebe
000002b0: 7114 21bf 1308 543f 87f3 cc3e 55f9 703d
000002c0: 8612 aa3e f862 d43e 5f5a 073c 6f3e cebd
000002d0: e291 5fbe 6cea 6cbe c9c7 8ebe 1a56 94be
000002e0: aa35 57bf 1106 2c3f fc3d efbd 9096 263f
000002f0: 8c3b 823f 780e c63c 010e 8a3e af9f b2be
00000300: 19ff 8c3e 8fc0 23be 473d 0e3e e98a eebe
00000310: 932b f8bc 507b 143f 08f1 233e 843b 49bf
00000320: 7367 8f3e e914 b93d 510d 113f f954 f8be
00000330: 035a d1be cebf 1fbd b328 16be beb1 e9bd
00000340: 3b2e 1c3f dea0 1cbf abb8 ecbe c052 493e
00000350: 9360 8d3f f7a4 983e 756b 80be e7d5 82bf
00000360: 5e57 3ebe 320c a0be 2681 f7be 41be 463e
00000370: 7f15 803e 4bcd 393e 0efa 003e 12fd 25bf
00000380: d616 723e dbcd 5a3e 2942 07bd 25c1 933e
00000390: 9c9a 3c3e 0f45 a0bd c865 03bf dc82 d6be
000003a0: 9844 023f 404b 1bbf 99e7 14be 4890 32bf
000003b0: 70b8 f5be f42d ab3e 4680 883e 4cb3 e3be
000003c0: 647c f2be 70eb 01bf 7aa1 b43e 1107 26bf
000003d0: 3f13 14bf d069 e2be 61ee df3e 4f30 573f
000003e0: 0e27 563f 2b94 b8be 92b1 283f 648d 3dbe
000003f0: ed8b 503e 7726 233f d767 bdbe 8737 1dbf
0.14421085 -0.57653576 0.17515488 -0.9968485 0.025437796 0.6508744 0.6640963 -0.33222052
0.54731476 -0.5152603 -0.1924589 0.024279034 -0.58847606 -0.14569654 0.54633796 0.14547418
0.46580222 -0.9152832 -0.2036809 0.3578194 0.8394835 -0.0634924 -0.29063076 -0.9820409
0.4659772 0.07124133 -0.19362527 0.80223864 0.533846 0.41302097 0.13933909 -0.5055165
0.23151238 -0.6486009 -0.032430373 0.6388659 0.09495227 -0.11604292 -0.5381005 -0.24784395
0.8117868 -1.0392761 0.52128875 -0.9694009 -0.52685684 1.0127528 0.40336356 -1.070039
-0.5322031 -1.0812912 0.28097996 -0.6388036 0.3259366 -0.76970816 0.423634 0.37656936
0.77195793 -0.06596837 0.1356771 0.004676049 1.1855036 0.45855072 -0.20024143 -0.778618
-0.031252135 0.07872286 -0.72057724 -0.9384534 0.2978703 -0.13993055 0.17583765 -0.74650234
0.42302307 0.259827 -0.23929805 -0.23708645 -0.16080774 -0.41769573 -0.69539374 -0.776042
-0.0026010596 -0.41504148 -0.5457765 0.09494908 0.1735145 -0.42491445 -0.08379211 -1.1090801
-0.40275285 0.42767388 0.14281921 0.49061164 0.725606 0.19661044 0.020618757 0.5296543
-0.1701209 0.1186422 -0.09356524 -0.2853373 -0.54334486 -0.5345977 -0.40570143 -0.07345238
0.21649861 -0.5452112 0.26314536 -0.27753666 0.42398402 0.41186944 -0.6790662 -0.80951786
0.91632336 -0.3576917 -0.65466166 -0.62715465 -0.6979284 -0.045960587 0.103127085 -0.99000126
0.15670285 -0.50442415 -0.70816207 -0.24346437 0.36426315 -0.80537796 -0.014556098 -0.53705245
-0.35882393 0.7397449 -0.36656162 0.3557593 -0.48663563 0.21507 -0.22400372 0.015775742
-0.52874726 -0.12313426 0.7025934 0.06493899 -0.6717673 0.3286129 -0.9240311 -0.61453974
-0.22263262 -0.372108 -0.055886112 0.037425954 0.4099545 0.53715885 -0.57453656 -0.30299568
0.07043842 0.16201843 0.15218069 -0.050220847 0.25811285 0.05651293 -0.25826663 -0.12234778
-0.054556534 -0.25477582 -0.15808026 -0.1759501 -0.551416 0.15663013 0.44018748 -0.28649303
0.8949273 -1.0386721 0.20310579 -0.27783528 -0.62921816 0.8282482 0.40029547 0.05883153
0.33217257 0.41481757 0.008261292 -0.10070502 -0.21832994 -0.231363 -0.278868 -0.2897194
-0.8406626 0.67196757 -0.116817445 0.6507349 1.0174422 0.024176821 0.2696381 -0.34887454
0.27538374 -0.15991424 0.13890563 -0.46590355 -0.030294215 0.5800066 0.16009915 -0.7860644
0.28008613 0.090371914 0.56660944 -0.4850233 -0.40888986 -0.03900128 -0.14663963 -0.11410855
0.6100804 -0.61182964 -0.4623464 0.19660473 1.1045097 0.29813358 -0.25081983 -1.0221528
-0.18588015 -0.31259304 -0.4834072 0.19408514 0.250164 0.1814472 0.12595388 -0.6483928
0.23641524 0.2136759 -0.03302208 0.28858295 0.18418354 -0.07825672 -0.5132718 -0.41896713
0.50885916 -0.606617 -0.14541472 -0.69751406 -0.47992277 0.33433497 0.26660365 -0.4447273
-0.47360528 -0.50749874 0.35279447 -0.6485453 -0.5784187 -0.44221354 0.43736556 0.8405809
0.8365334 -0.36050543 0.6589595 -0.18510967 0.20365877 0.6373057 -0.36993286 -0.61412853

encoder.0.lstm.bias_ih_l0_reverse f4 [32]
00000000: 4536 06be d5fc 7c3e 2850 c2be a901 23be
00000010: fa25 a53e a51b 6fbd 7266 0e3f 7a8e 4b3e
00000020: e784 673e 74c6 163e 9ac9 e83e be01 c73e
00000030: 6a20 53bf 5c0e a6be 7d8a 2dbf 654f 80bf
00000040: 86b5 8dbe 13e5 803d b24c fa3e d463 a33e
00000050: d12c 613d 6e7b e0be 4765 60be 1303 0e3e
00000060: 8805 483e cdc7 b03e 6844 22bd e552 c7be
00000070: 7690 1f3f a678 66bd 068e 7b3f 1c23 153e
-0.1310664 0.24705823 -0.3795178 -0.15918602 0.32255536 -0.058375973 0.5562507 0.19878569
0.22609292 0.14724141 0.4546631 0.38868517 -0.82471335 -0.3243283 -0.6778944 -1.0024229
-0.27677554 0.062936924 0.4888664 0.319121 0.05497438 -0.4384417 -0.21913634 0.1386836
0.1953336 0.34527436 -0.03961602 -0.3893043 0.62329805 -0.056267403 0.98263586 0.14564174

encoder.0.lstm.bias_hh_l0_reverse f4 [32]
00000000: ca7a 403e b835 a43c 69c9 72be aaa6 82be
00000010: 1dce 0d3f ef0b 1a3d 39e5 893f 7980 3b3f
00000020: 2fcb 333d 5d41 293d 2380 e0bd 08ce 1f3f
00000030: 92ac 98be a235 143e 5601 41bf cf2c 84bf
00000040: 5575 47be c515 153c 8c09 0c3f 3355 6fbe
00000050: 9ff2 fb3d ee17 373e d64f 5cbd 727a 003f
00000060: e0ad f73e 96c8 f03e 6736 b3be 59f4 52be
00000070: e583 9e3e 81f4 e6bc c9f7 8b3f f6fa 403f
0.1879684 0.020045146 -0.23709644 -0.2551778 0.5539263 0.037609037 1.0773078 0.7324291
0.043894943 0.0413221 -0.1096194 0.62423754 -0.2981916 0.14473584 -0.75392663 -1.0326174
-0.19478352 0.009099429 0.5470207 -0.23372345 0.12302136 0.17880222 -0.053787075 0.50186837
0.48374844 0.47028035 -0.35002443 -0.20601024 0.30960003 -0.02819276 1.0934993 0.75382936

encoder.1.lstm.weight_ih_l0 f4 [64, 16]
00000000: 6193 ddbc 893e d13e 0d2a 0f3f b8ee 8f3e
00000010: d3fa babe 7f18 aa3e 374d 7b3f 5bda 8a3e
00000020: e7ee 95be 9fd6 293e 8bef c43e 9f50 553c
00000030: 9936 a33d c7fe e1be a062 0cbf a124 8f3e
00000040: 3cd4 f1bd 3b81 6bbc c48b a93e bc8d f33e
00000050: 1d52 d03d 33bc f8bd 9c96 8dbe ac52 b0bd
00000060: 9235 073f 62ee d0bc 958c 19be f028 4e3e
00000070: 6f91 323f 720f 813f c903 5ebf 838d 0dbf
00000080: 3113 8ebf 8b55 963f 1c39 47bf 1aaa 09bd
00000090: 3e86 773e 883c 1d3f eeee 50be 8644 72bf
000000a0: f328 a9bd ff5d 39bf 9305 d83e 939d d53e
000000b0: 2198 d53e 5f62 913f 9727 e7bf 5319 07bf
000000c0: d756 363e d7d4 d63e a53a 203f 7fe1 cdbe
000000d0: 189b 23bd fe39 5b3e cb3b 9fbd d6bd 01bf
000000e0: c6db b03e 3295 63be d0c5 6bbe 9de9 eebe
000000f0: cac2 7cbf fdf5 2cbf 6c1f 77bf f8bf 8fbe
00000100: 627f 73be a5a5 f23d feea 553f 9448 0fbf
00000110: d08a 81bd d908 fb3e 19ee 8cbe 516c b0bd
00000120: ee11 c2bd 3d2c 723e d4f4 f0be 70ba bc3e
00000130: cd82 c53e 31ae 6bbe 7b75 6abe 590b d7be
00000140: e0de d5bd 8fc2 c1be 2046 2c3f f5c7 a4bc
00000150: 931e 0cbf 7803 ef3d f55d 9a3d fdea e7be
00000160: 12b6 a7bc ff1c 11be 631f 8cbe 0e0b 0dbf
00000170: 2b56 a23e e423 a5be 1c70 d5bd b73a 573d
00000180: afd9 e8bd 56bb 893e 173a 0abf 89d8 f13e
00000190: 1e69 073f 4109 543f 44cb f13d cd0d 553f
000001a0: dd1e e9be b602 a73e 382d a13e e8e4 f4bd
000001b0: 6e1c b5be 09ba debe 94ef 1440 dffc 553f
000001c0: 2c3c 85be dde5 643f ac6f d0be b3bc 34bf
000001d0: 0ec2 633f e5de 5d3f 2c44 b4bf ff15 e9be
000001e0: 477a 54bf 5792 dd3e e859 a8be b4c9 2abe
000001f0: dc17 08be d039 323e f0e6 853e c01f c4bd
00000200: 887e 1dbf 1ac2 883c 8e00 b23e 16aa 3f3e
00000210: 25df d1bd 6e7f b4bd f180 8e3e 373c d0be
00000220: 1908 3dbe 33fb 863e 5cb7 283e ef41 2cbf
00000230: 61f0 33be 8019 bdbd 8e37 3e3e 2791 1e3c
00000240: 6e7d 16be 6190 b3bd 8bed ab3e ce47 8d3d
00000250: 3b7a eabe b1fa f63d a45c eabe 4c68 26bf
00000260: 65a0 3fbd b5bf c13e 50cb cd3d 8818 2b3f
00000270: 7c22 683f 78a0 043f a923 4fbf 783e 8cbf
00000280: 5baa 51be 0a2c b2be 0e4a 59bd cf9f 4b3f
00000290: a8e2 cbbe 8caf 793e a4a0 57be d750 13bf
000002a0: 6c4f a8be 696c 0a3e d4d0 d1be b289 0dbd
000002b0: 42be a73e 7596 a13f 7fa2 1bbe 6a5f d0be
000002c0: 62cb 7e3e acc1 6b3d 3eda 96be 118b bdbc
000002d0: bd0e 27be 39a9 21bd 9126 8abf 20b9 e5be
000002e0: ff88 4e3f b48d b1be 6caf 05bf 9374 0f3f
000002f0: 01ac 82bd fb5b 113f 1165 833d 0851 1bbf
00000300: 656b ffbe 20ac bcbe 2800 ca3c 4ecb 1dbe
00000310: cc33 9dbd 3872 493e 5f02 3c3e 8319 3bbf
00000320: 1a59 b0be 84a0 4ebe 0ed9 d9bd 2f4b 713e
00000330: f103 f7be 4e13 29bf afb0 a8be c44e fc3d
00000340: 2e05 da3e b8e0 163d 6bfc 0a3e 0fad 2dbe
00000350: 5a45 eb3d 354f b2bc 7e93 3bbe 0ee5 f43e
00000360: 4d65 ab3e 6275 abbd 3f6d f93e 410f 783f
00000370: 4dc3 6b3e db07 67be 7251 f6be 4bc0 9abe
00000380: 8037 9f3c b992 f43a c008 ccbe 602f 6b3e
00000390: be85 83be 4b52 de3d a602 6b3e 0373 d83e
000003a0: 4ca1 a83e 43f4 163d bfd1 0d3e 6c5c 1c3f
000003b0: 1cc3 efbd 869d 823f 73ba 643f f512 e13e
000003c0: 5870 6b3d e162 a53d 28c0 2fbe 3cf8 a2bc
000003d0: 6234 94be 02ab 4f3d 3488 dfbd 85c1 68bb
000003e0: f4b8 35be a062 463d de47 4dbe 6554 bf3e
000003f0: 6bcf 983e ba61 da3e 94b2 e4be e058 8f3d
-0.027047815 0.40868023 0.5592354 0.28111815 -0.3651949 0.33221814 0.98164696 0.27119717
-0.2928383 0.16585778 0.38464007 0.01301971 0.07969398 -0.44139692 -0.5483799 0.27957633
-0.118080586 -0.014374073 0.33114445 0.47569072 0.10171912 -0.12145271 -0.27653968 -0.086095184
0.52816117 -0.025504295 -0.14995034 0.20132804 0.69753164 1.0082839 -0.86724526 -0.55294055
-1.1099607 1.1744856 -0.77821517 -0.033609487 0.24172303 0.6142049 -0.20403644 -0.9463581
-0.082597636 -0.7240905 0.42191753 0.41721782 0.41717628 1.1358145 -1.8058957 -0.52773017
0.17806564 0.4195926 0.62589484 -0.40211102 -0.03994283 0.21408841 -0.077750765 -0.5068029
0.34542674 -0.22224882 -0.23024678 -0.46662608 -0.98734725 -0.6756285 -0.9653232 -0.28076148
-0.23779061 0.118480004 0.83561695 -0.5597012 -0.063253045 0.49030188 -0.27525404 -0.0861441
-0.09476076 0.23649688 -0.4706179 0.3686099 0.38576356 -0.23015667 -0.22896378 -0.42000845
-0.10442901 -0.3784375 0.672945 -0.020114878 -0.5473415 0.116705835 0.07537452 -0.4529647
-0.02047256 -0.14171217 -0.27367696 -0.55094993 0.31706366 -0.32253945 -0.10421774 0.05254623
-0.11369645 0.26900738 -0.5399489 0.47235516 0.5289477 0.8282662 0.11806348 0.83224183
-0.4553136 0.32619256 0.31479812 -0.11957723 -0.35373253 -0.4350131 2.3271227 0.83588976
-0.2602247 0.89413244 -0.407102 -0.7060043 0.8896798 0.86668235 -1.4083304 -0.45524594
-0.8299908 0.4327571 -0.32881093 -0.16678506 -0.13290352 0.17404866 0.26152754 -0.09576368
-0.61521196 0.016694117 0.34766048 0.18717226 -0.102476396 -0.08813368 0.2783275 -0.4067094
-0.1846012 0.26363525 0.16476196 -0.67288107 -0.17572166 -0.09233379 0.1857588 0.009678162
-0.14696285 -0.087677725 0.33579668 0.06898461 -0.4579638 0.12059534 -0.45773804 -0.65002894
-0.046783824 0.37841573 0.100485444 0.66834307 0.9067762 0.51807356 -0.8091379 -1.0956564
-0.20475142 -0.34799224 -0.05304914 0.79540724 -0.39821362 0.24383372 -0.21057373 -0.57545227
-0.32873094 0.13517918 -0.40979636 -0.034555145 0.32762343 1.2624041 -0.15198706 -0.40697795
0.24882272 0.057557747 -0.2946338 -0.023137601 -0.16314216 -0.039468024 -1.079302 -0.44867802
0.8067779 -0.34678423 -0.522208 0.56037253 -0.063804634 0.56780976 0.06415761 -0.6067052
-0.49886623 -0.3685007 0.024658278 -0.15409586 -0.07675895 0.19672477 0.1836028 -0.730858
-0.3444298 -0.2017842 -0.10637103 0.23563837 -0.48245195 -0.6604508 -0.329473 0.12319711
0.42582077 0.036835402 0.13572852 -0.16960548 0.11487837 -0.021766284 -0.18317983 0.47831005
0.33475724 -0.08371998 0.4871616 0.96898276 0.2302372 -0.2256159 -0.48109013 -0.30224833
0.019435644 0.0018659449 -0.39850426 0.22967291 -0.25687975 0.1085554 0.22950229 0.42275247
0.3293556 0.03685404 0.13849543 0.61078525 -0.11707136 1.0204322 0.89347 0.43959776
0.057480186 0.080755 -0.17163146 -0.019893758 -0.28946215 0.050700195 -0.109146506 -0.0035515737
-0.17746335 0.0484339 -0.20046946 0.37369075 0.29845747 0.42652684 -0.44667494 0.069993734

encoder.1.lstm.weight_hh_l0 f4 [64, 16]
00000000: 27c1 22bf 40c4 48bf 9cda e5bd 0727 9e3f
00000010: 471a 993c 238b 1e3f 30e2 1a3f 13c8 d1bd
00000020: 3686 f93c c38b 823e d471 823c fb6a 5ebe
00000030: d7e1 f63e bbc0 243d 1006 02bf 935c 0ebe
00000040: 1010 d5be 4f88 cabc 25cc 3b3f 5de8 223e
00000050: 9ea5 68be 7ba3 353e 2276 80be bcd2 373f
00000060: c792 0c3d 9db4 a8be c603 b5be 57e4 b2bd
00000070: 2849 11be 0053 aabc f12b bdbe b89e 01bf
00000080: cd6e a1be baf0 703f 7f83 8e3f e251 6dbe
00000090: 78b8 be3e 75ec 82bf 293c 81bd 28b9 8e3e
000000a0: f148 393f a26c e8be a951 2ebe 4973 07bf
000000b0: 7e0d 91bd 2907 8a3e 6132 083f 115c f93d
000000c0: 7a00 c43e e3f2 98be d8c3 39bf c8fa 86be
000000d0: 52c0 88be daee adbe a45d f4bc d9f8 1fbe
000000e0: 83ef 1abd 0bb8 8abd 0965 dd3e 9ab3 1c3e
000000f0: 36db ed3e febf 47be b832 8abe b9df b0be
00000100: 2dbf 743f 9a20 a3be 3ad8 223e 9f13 11bd
00000110: 565b f43e 839e d03c fbb0 d13e e35b 03bf
00000120: 2899 a63e ef8e 613f 0ef3 c23d e202 cb3d
00000130: a7f8 71bd 50d3 acbf ebed 67bf ebe4 9d3e
00000140: b38c 98be 0384 6fbf 0717 3e3d d708 353f
00000150: 054b e03d 35a6 6e3f 89d6 9abd b84a 0a3f
00000160: 3805 fabe d3c1 eb3e f2a8 70be ebd0 563f
00000170: 7f83 9fbe 710b 76be 8148 2ebf 52f4 803d
00000180: f560 8d3f 765c 943d 7c9a 2bbe c27a 74bd
00000190: 94d6 ec3d beaf 63be b458 fb3f 2ba9 f73e
000001a0: 4c81 32be b82c 62bd 91e0 cc3e 3d8a f1be
000001b0: a029 123f 7cd9 54be 4d50 08be d935 053e
000001c0: 097e 863e b6b8 8fbe 8b26 d7be b4bb 1ebe
000001d0: 8083 a43d 6fc7 6a3e 2449 de3e 4e6d 85be
000001e0: 99f0 30be c03b 503d 5302 5d3f 05a3 2f3f
000001f0: dfdc a03e 9dbe 7cbe 39e0 26be 29d9 b83e
00000200: 5ed8 d3bd f1d6 203c 69fb d43e f128 0f3f
00000210: 3d00 da3d 4351 db3e f867 9f3e 2db8 cd3e
00000220: 77fb c4be 2217 cfbd 87a5 3abe a5f8 053e
00000230: 1663 133f f55e 02bf 5522 ff3c b163 0ebf
00000240: 7ffc 1bbf bde1 16bf 6143 023f 0718 85be
00000250: ff7b 823f 0473 9c3e ac6e 0b3e da73 343e
00000260: 2a47 dcbe 0787 18be cb10 21bf 2b30 2e3e
00000270: 0a03 0abf 4d97 7dbf 52f5 13bf 837d a5be
00000280: 59c9 47be dac2 1e3f 87dc 633f dd8e e53e
00000290: 13f5 cfbd 7013 923e b6d9 023f a081 163e
000002a0: 2df3 4ebf 6e3a 57be 1794 6a3f 4828 34bf
000002b0: da1b 143f 3a1d 11bf 60a4 643f 939e 4fbe
000002c0: 425b 8fbe acef 51bd 4db7 5f3f d7ea 573e
000002d0: ef88 3f3f 0b53 0cbf a9ca 53bf fa61 21be
000002e0: 3801 133e 0cc7 4abf a398 1dbf 1080 0cbf
000002f0: 5303 44bf 8bae fabd d056 fa3d 3859 c8be
00000300: 433f a03e fc4a b6bd 8d95 453f 0434 b1bd
00000310: ffc2 60be c012 173f ff33 ab3e ffc4 80be
00000320: e2bd 453e 1701 3dbf 6cb1 dcbe ad82 cbbe
00000330: 7bf9 7bbe e7f1 77bf 76f7 12bf 1c25 f8be
00000340: 6b7c 853f fe1a f53c 2b20 77bf ff28 43bd
00000350: ea37 833e 9651 a2be 7d50 24bf bc00 08bf
00000360: e663 9a3e 1398 113f 7a6e b93e 9b47 fe3d
00000370: 5095 323c 3f7c 693e f1dc 033d 14cb 853f
00000380: abf4 d93f 7258 fa3d 045a 453e 81b8 b2be
00000390: cdaf c63e 8a8b e2bc ec78 493f 3999 0abf
000003a0: 70b5 e13d c9d7 4c3e 5ad9 423f 5875 b0be
000003b0: d3a8 09bf 34af e53e e620 94be d1db 6d3f
000003c0: f083 42bf 89ce 2bbf 96f3 efbe 4919 d03e
000003d0: dffc 273d 5ef9 833e 4240 503e 3a75 02bb
000003e0: fad2 853e 4c6f 2f3e 75a3 e4bd 0b83 143f
000003f0: a65a 43bd 4585 c9be d169 0cbf bba6 7bbe
-0.6357598 -0.78424454 -0.11223337 1.235566 0.018689288 0.61931056 0.60501385 -0.10243239
0.030459505 0.25497255 0.015923418 -0.21720497 0.48219177 0.040222865 -0.507905 -0.13902502
-0.41613817 -0.0247232 0.73358375 0.15908952 -0.22719428 0.17738144 -0.25090128 0.7180593
0.034319665 -0.32950297 -0.3535444 -0.087349586 -0.14188063 -0.02079153 -0.36947587 -0.5063281
-0.31529847 0.9411732 1.113388 -0.23175767 0.37250113 -1.0228411 -0.06310303 0.27875638
0.72376925 -0.4539538 -0.17023338 -0.52910286 -0.070826516 0.26958588 0.5320187 0.121757634
0.38281614 -0.29872808 -0.7256446 -0.26363206 -0.2670923 -0.33971292 -0.029829808 -0.15622272
-0.037826072 -0.06773385 0.43241146 0.15302888 0.46456307 -0.19506833 -0.2699182 -0.34545687
0.9560421 -0.3186081 0.15902796 -0.035419103 0.47725934 0.02546621 0.40955338 -0.51312083
0.32538724 0.88108724 0.09519015 0.09912659 -0.059075024 -1.3501987 -0.9059741 0.30838713
-0.29794845 -0.9356081 0.04640868 0.70716614 0.10951809 0.9322236 -0.075604506 0.5402026
-0.48832107 0.46046314 -0.23501948 0.83912534 -0.3115501 -0.24027802 -0.6807938 0.062966004
1.1045214 0.07244198 -0.1675815 -0.059687383 0.11564365 -0.22235009 1.9636445 0.48371252
-0.17432135 -0.05521843 0.4001508 -0.4717578 0.57094765 -0.20786089 -0.13311882 0.13008823
0.26268032 -0.2807061 -0.42021593 -0.1550129 0.08032894 0.2292764 0.43415177 -0.26059955
-0.1727928 0.050838232 0.8633167 0.68608123 0.3141851 -0.24682088 -0.16296472 0.3610318
-0.10344003 0.009816871 0.4159806 0.55921847 0.10644577 0.42835435 0.3113401 0.40179577
-0.38473102 -0.10111834 -0.18227206 0.13083132 0.5757307 -0.5092614 0.0311443 -0.55620867
-0.60932153 -0.589382 0.5088406 -0.25994894 1.0194091 0.305565 0.13616437 0.17622319
-0.43023044 -0.14895259 -0.6291625 0.17010562 -0.5391089 -0.9905899 -0.57796204 -0.3232232
-0.19510402 0.6201607 0.89008373 0.4483556 -0.10154166 0.28530455 0.5111345 0.14697886
-0.80839807 -0.21018383 0.9163222 -0.70373964 0.57855 -0.5668522 0.89313316 -0.20275335
-0.27999312 -0.05125396 0.8738907 0.21085678 0.7481832 -0.54814214 -0.8273111 -0.15760031
0.14355934 -0.7920997 -0.6156103 -0.5488291 -0.7656757 -0.12240323 0.122235894 -0.39130569
0.31298265 -0.08901021 0.7718132 -0.08652499 -0.21949385 0.59012985 0.33438107 -0.25150296
0.19310716 -0.7382979 -0.43104112 -0.39748135 -0.24606888 -0.9685349 -0.57408845 -0.48465812
1.0428594 0.029920097 -0.9653346 -0.04764652 0.25628597 -0.3170287 -0.64185315 -0.5312612
0.3015434 0.5687267 0.362171 0.124160014 0.010899857 0.22801302 0.032193128 1.04526
1.7027792 0.12223901 0.1927262 -0.3490639 0.38806 -0.027654428 0.7870014 -0.5414005
0.110209346 0.2000419 0.761129 -0.34464526 -0.5377323 0.44860232 -0.2893135 0.9291354
-0.7598257 -0.6711202 -0.4686553 0.4064429 0.04101264 0.2577619 0.20337012 -0.0019906298
0.26137525 0.171323 -0.111639895 0.58012456 -0.04769387 -0.3935949 -0.54848963 -0.24575321

encoder.1.lstm.bias_ih_l0 f4 [64]
00000000: 14ce 3c3f fc2f 2bbe 23b9 153e a115 2abe
00000010: 2773 78be 0e57 c1bc 1a2a 223e b446 4d3d
00000020: cfa0 f3bd 7933 b23e a22e 683e a61c 40bf
00000030: aa36 4cbe b4a3 b13d 2a24 e7bc 879d 503e
00000040: 1aed 62bf 1954 6e3d a7ba 1d3e b854 76be
00000050: 7709 b53d a20c fb3e eef6 f0be ec44 6bbf
00000060: 52f1 d83e ec59 82be 0b23 76bf 8e22 b4be
00000070: 420f 2bbf f3a4 97bd 077f dbbd 5189 3ebf
00000080: a2ba 173d ae1c 10be 60c1 bdbd fdd9 9d3e
00000090: 3e71 c7bc c65d b23e 5766 3d3d c89d d3bd
000000a0: 7258 babd 16ed 04be 56db 91be 0b22 dabe
000000b0: 5d18 2d3f 57ff 32bc 13c8 743e 98c3 96bd
000000c0: 1042 833f 81dc f43c bae8 82be b2bf 633e
000000d0: 7b8c 62be e678 0fbf 2b77 293e 5107 333e
000000e0: 083c 58bf dff4 0f3d 0bae 993e b230 2abf
000000f0: 3837 e63d 53b8 243f aac9 b2be e2b9 573d
0.7375195 -0.16717523 0.14621405 -0.16609813 -0.24262677 -0.023601081 0.15836373 0.050116256
-0.11895906 0.34804896 0.22674039 -0.75043714 -0.19942728 0.08673802 -0.028215487 0.20372592
-0.8864304 0.05818567 0.15403233 -0.24055755 0.08839696 0.49033076 -0.47063392 -0.9190204
0.42371613 -0.2545923 -0.9614722 -0.35182613 -0.66820157 -0.074045084 -0.10717588 -0.7442828
0.03704322 -0.1407344 -0.09265399 0.30830374 -0.02434599 0.34837168 0.046240177 -0.10332829
-0.09098901 -0.12981066 -0.28487653 -0.42604098 0.676153 -0.010925136 0.23904447 -0.07361525
1.0254536 0.0298903 -0.2556818 0.22241095 -0.22123902 -0.5604385 0.16549365 0.1748326
-0.844666 0.035145637 0.30015597 -0.66480553 0.11241001 0.64343756 -0.34919482 0.052667506

encoder.1.lstm.bias_hh_l0 f4 [64]
00000000: df82 403f dbe6 fcbe dbaf 41be c2a3 b63c
00000010: ea85 0dbf 09f8 93be 74d3 d63e aa10 313e
00000020: 523d 573d eed9 61bd d800 d1bd 1d7d 50bf
00000030: 649a 81bd 3528 433d c843 82be 05e9 47be
00000040: a948 58bf 2379 ddbd 81be 93be 451c 03be
00000050: c1be b4bd b1b3 d73e 93e3 c3be ebd9 82bf
00000060: 65c1 e23e f117 48be 540f 5fbf 4109 aabe
00000070: cabf 91be c274 74bd b5e2 103e 882c 5dbf
00000080: 16c9 453d 45bb db3c c12a aabe b75e 3a3b
00000090: 9574 0bbe d015 5c3e 5243 3f3e 8337 253e
000000a0: e17e c5be 54de 1d3d e2fb 5bbd 48be 1bbf
000000b0: 3d73 aa3e 027a 30bd 0e97 50be 04d3 323a
000000c0: 6f49 823f 648d b2bd 2ed1 40be 18d8 14bd
000000d0: dd50 bebe aedc b9be 1d1c 833e 8da8 cc3d
000000e0: 500e 3ebf 7888 903e 1adf da3e 79a3 43bf
000000f0: 9863 483d f88e a03e 62af e5be d56d e3bd
0.75199693 -0.4939488 -0.1891474 0.022294883 -0.5528246 -0.28900173 0.419582 0.17291513
0.052548714 -0.055139475 -0.10205239 -0.8144091 -0.06328276 0.047645766 -0.25442338 -0.19522484
-0.8448587 -0.108141206 -0.2885628 -0.12803753 -0.08825446 0.4212928 -0.38259563 -1.0222753
0.44288173 -0.19540383 -0.87132764 -0.33210185 -0.28466636 -0.05968166 0.14148982 -0.86396074
0.048287474 0.026822696 -0.33235744 0.0028437802 -0.13618691 0.21492696 0.18678024 0.16134457
-0.38573363 0.038542107 -0.05370701 -0.6083722 0.33291045 -0.043085106 -0.20370123 0.0006821605
1.017866 -0.08718374 -0.18829796 -0.036338896 -0.3717107 -0.36301178 0.25607386 0.09993086
-0.7424059 0.28229117 0.42748338 -0.76421314 0.048923105 0.31359076 -0.4486037 -0.11104933

encoder.1.lstm.weight_ih_l0_reverse f4 [64, 16]
00000000: 289a a63e e90e efbe d186 903d b128 0c3f
00000010: 9967 423d cf00 2abf 350b f53e c9c4 e03f
00000020: 95bb f23e 71ef 37bf 48fd a4be ab01 5d3f
00000030: d604 ec3e b714 27be 70c0 1ebf e3fc 4a3f
00000040: d1f2 0e3d 5561 02bf b119 30bf 0da9 0c3e
00000050: 64e3 7bbf dc46 5fbf 1eca a33e 2e2d e33e
00000060: ed01 163f cbfd 33bd 3b28 a3be 6599 613f
00000070: d742 843f c275 6fbd 850a 823e 4c81 d9be
00000080: 631a 9cbe 4fe8 bf3e b712 67be 3486 443e
00000090: f069 f93e 1f7d abbd 0226 5abf b77e 51bf
000000a0: db69 babd 4286 b53e aa19 9b3d 3f07 9e3d
000000b0: 9282 1d3f 4c70 fb3e 9132 dabe c6c7 83bf
000000c0: d8b7 3ebe a160 a23f 3579 e6be 40b8 0c3e
000000d0: ba87 083f 899a 7a3f f849 55bf 4a8e 66be
000000e0: 8207 2e3d c144 833e 0b07 7bbf 0aa0 b53e
000000f0: f169 853e af2c e63d 3875 643e a305 13be
00000100: 36f1 703b 805b 8bbe 06fa 013e 6af8 86be
00000110: 0e00 a5be ae02 cabd 5458 f8be 7964 143f
00000120: 24d5 16bf 2d17 693e ae7c 9fbf 77ad 5cbf
00000130: 0456 e63c d49c 113e 0380 6a3f ceec 6dbe
00000140: 42ac b3be 4bf6 223e daee 08bf f92a 063e
00000150: f273 0c3f d0a3 763c 671e a53f 10db 763f
00000160: 2885 473f fec1 92be 3688 f83e 9002 07bf
00000170: 5744 f0be b0d3 3bbe dff5 ff3d 32c1 a33f
00000180: eb95 05bf 9961 f23e 2a10 51bf 7563 b43e
00000190: a108 e63d cc1d f73f 8765 0cbf 5ac2 febe
000001a0: ba10 cebe b183 15be 8397 f33c 08a3 38be
000001b0: c69c babe 176a 33bf b951 c63d 194b 2d3f
000001c0: 64d9 e5bd 2324 39be 6a86 95bd 6de9 f63e
000001d0: b2dc 02bd c45c 3c3b a251 053f 8098 813e
000001e0: 1044 7dbd 7440 103e a727 15bf 7848 203f
000001f0: 0232 173f 4ea7 443f 0233 7abe 3bcc 8abe
00000200: 4b0b 19bf b4e4 a13d 4c1c 973d 1198 26bf
00000210: a3db c53e e665 9b3e 47a3 33bf 1441 42bf
00000220: 4d47 5abe 6a6a c23d f61e f93e 01c4 c4bb
00000230: b57f 80be aa2f 2d3f a2cc 4bbe 2cbb 07bf
00000240: 23b4 8dbd c151 043f 5e75 273e 6401 72be
00000250: 7cf8 a83e 0213 f13e 30fd 89bf 1971 98be
00000260: 541e 94bd 8b02 823e f8d4 b0be 1097 28bf
00000270: e77c 23bf 08c9 dabe c1c3 bfbc b2c1 483e
00000280: 8da4 e1be d52d 253f 4842 c7be c68a c33e
00000290: d73c 793e 142e 2f3f 583c 42bf ff12 59bd
000002a0: 25c7 84bf 286d 863f 1d0b 283d ef99 683f
000002b0: b4b3 673f ea09 e43d 818a 213e 12d9 4bbf
000002c0: 4f9e 47be 2f78 3c3e ca44 413e f561 2e3f
000002d0: 3baa 493e 8a17 353f 3e86 f1bd 9121 913e
000002e0: 8c6d 7ebe cd87 1f3f 8224 843e d625 d8bd
000002f0: ed84 263f 30fa b2be baef fc3e e870 0abf
00000300: 698b 6c3d 783c 8e3e c600 d7bd 9835 c0be
00000310: 8092 dc3e 1704 353e 362d 7bbf 1a31 603d
00000320: a3cb 9bbe 8783 5cbe 306d e9be 4fdf 31bf
00000330: 23ef 32be efea c93d f95e 2b3b be98 a4be
00000340: 9fc9 823e 7d48 a3be 71bf 293e 4e7e 0d3d
00000350: 1848 cebd f8b2 dcbe 9a17 02bf b47e 7f3f
00000360: 6ebe c1be 4843 c93e 0c0b e83d 9adf af3e
00000370: 7076 113f 9e84 cfbe 7334 7a3e 26eb c7bd
00000380: f6ff 843d 3a5f b63c 1fb8 cdbf ccad 553f
00000390: 01b1 f3be 8428 263d cca6 8d3f 9fbc 153f
000003a0: 0d12 3b3f 6859 91bf de3c 0b3f f4a5 9ebc
000003b0: 4e11 28be 3c3d 423f 155f 0a3e 3170 1a3e
000003c0: 2fc7 1ebe fe8d 1c3f 77c9 babd e3ff d03d
000003d0: effe c03f a001 1e3f 7183 f53e 29a9 80bd
000003e0: aad2 1dbf 2daa 4a3e 6a59 433f 2657 a23e
000003f0: 7191 513e 12a1 8f3f b9be 30bf 58df 87bf
0.32539487 -0.46691063 0.07056964 0.5474959 0.04746208 -0.66407484 0.47860113 1.7560054
0.4740874 -0.71849734 -0.32224488 0.8633067 0.4609744 -0.16316496 -0.62012386 0.79292125
0.034899537 -0.50929767 -0.687892 0.13736363 -0.98393846 -0.872175 0.3199014 0.44370407
0.5859669 -0.043943208 -0.3186663 0.88124686 1.0332898 -0.058461912 0.2539865 -0.42481458
-0.3048888 0.37481925 -0.22565733 0.1919182 0.48713636 -0.08373474 -0.85214245 -0.81833977
-0.091022216 0.35453993 0.075732544 0.07716226 0.6152736 0.49109113 -0.42616704 -1.0295341
-0.18624818 1.2685739 -0.4501435 0.13742161 0.533321 0.9789205 -0.8331599 -0.22515216
0.04248763 0.25638393 -0.9805762 0.35473663 0.2605739 0.112389915 0.2231034 -0.14357619
0.0036764867 -0.27218246 0.12693033 -0.263614 -0.32226604 -0.09863792 -0.4850489 0.5796581
-0.58918977 0.22762747 -1.2459924 -0.86202186 0.028117187 0.14219981 0.9160158 -0.23234865
-0.3509236 0.15914266 -0.5348946 0.1310233 0.5486442 0.015053704 1.2899903 0.9642801
0.77937555 -0.2866363 0.4854142 -0.52738285 -0.4692714 -0.18342471 0.12498068 1.2793334
-0.5218188 0.47340086 -0.8166529 0.3523213 0.112321146 1.9305968 -0.5484242 -0.49757653
-0.40247136 -0.14601018 0.029735332 -0.18030941 -0.36447734 -0.70083755 0.09683556 0.67692715
-0.112231046 -0.18080191 -0.07301028 0.48224965 -0.031948753 0.0028741816 0.52077687 0.2531166
-0.061832488 0.14087087 -0.5826363 0.6261058 0.5906068 0.76817787 -0.2443352 -0.2710894
-0.59782857 0.0790495 0.07378444 -0.65075785 0.38644132 0.3035118 -0.70171016 -0.7588055
-0.21316262 0.09492953 0.48656434 -0.006004811 -0.25097433 0.67650855 -0.1990228 -0.53019977
-0.06919124 0.51687247 0.16353366 -0.23633343 0.3300208 0.47084814 -1.0780392 -0.29773787
-0.07232347 0.25392565 -0.34537482 -0.65855503 -0.6386246 -0.427315 -0.023408772 0.19605139
-0.44070855 0.6452306 -0.38917756 0.38191813 0.24339615 0.68429685 -0.7587333 -0.05299663
-1.0373274 1.0502062 0.041026223 0.90859884 0.9050858 0.111347035 0.15775491 -0.796281
-0.19493984 0.18405221 0.18873897 0.6811822 0.19693844 0.7073904 -0.11793183 0.28345922
-0.24846476 0.6231659 0.25809103 -0.10554092 0.6504658 -0.34956503 0.49401647 -0.5407853
0.05775014 0.2778051 -0.104981944 -0.3754089 0.4308052 0.17677341 -0.9811586 0.054734327
-0.304288 -0.21534549 -0.45591116 -0.69481367 -0.17474036 0.09859263 0.0026149137 -0.32147783
0.2554445 -0.31891242 0.16576935 0.03454428 -0.100723445 -0.43105292 -0.50817263 0.9980271
-0.378406 0.39309144 0.11330232 0.34350282 0.56821346 -0.40530866 0.2443407 -0.09761648
0.06494133 0.022262204 -1.6071814 0.8346832 -0.4759598 0.040565982 1.1066527 0.5849094
0.7307442 -1.135541 0.5438975 -0.019366242 -0.16412851 0.75874686 0.13512833 0.1508186
-0.1550567 0.6115416 -0.091204576 0.102050565 1.50778 0.6172123 0.47951844 -0.06282265
-0.6164957 0.1979148 0.7630831 0.31707114 0.20465638 1.122103 -0.6904102 -1.0615034

encoder.1.lstm.weight_hh_l0_reverse f4 [64, 16]
00000000: a990 d53e ddd3 343e dc70 6f3e e27d d8be
00000010: a687 b2bd 1b65 a3be 2810 fa3e d9b6 80bf
00000020: deb6 84be 1794 8ebe 8a71 8f3e e1ea 903e
00000030: 6743 c43e fd34 a5be f09c a43e 23cf fb3e
00000040: 9da8 563f 9205 0238 7e67 8abe 3db6 3ebe
00000050: ca17 363e 525e bf3e bb48 95bc bea3 3dbe
00000060: 5589 cdbd 86f4 893e dd8b 823d 691e 6abf
00000070: e1e6 9abe eb5f b73e 7478 3cbf 95d9 cabe
00000080: 9e5f 3a3e 57ee fe3d 3e0c 853e 8f13 da3d
00000090: 8749 8bbd 6a88 003e 36f4 693f 74ee bf3e
000000a0: 73d4 5abd c9b1 a23e dec8 a2be 93e8 2dbf
000000b0: 8294 a0be a5f7 9b3e 48c8 83be b53e 57be
000000c0: b4ad e2bd 2173 0f3e 4c72 5b3f 883e 16be
000000d0: a74d a9be 47d1 a13e 51b1 973e 063e 943b
000000e0: 373e 23bd 79d3 a93e b949 17be 06cc 1ebe
000000f0: e2dc 9f3e 0dd5 85be dd26 1ebf 3a61 c03d
00000100: 977c 523f a873 cb3e 94c0 693e 8dbd ebbe
00000110: b4f7 533e 6018 493f 41c0 503f f792 d8be
00000120: cd14 abbf 3e34 833e f3fd 1ebf e798 cbbe
00000130: 29f7 60be 4a11 4a3f e8b0 b7be 38bf a2bf
00000140: 99c4 90bf b442 a53d e4a4 cbbe 904b 3d3d
00000150: ff06 883e 7e5e a9be c657 07bf 397f 3f3e
00000160: 1e1c 013f 1ff7 15bf afb7 6dbd 32ac 823f
00000170: d734 33bf 0dda 87be 879a e73e 7a5b 183f
00000180: 6f53 85be f731 8b3e 6808 dd3e b6d1 bd3e
00000190: 78b1 0a3e dfc5 a23d ce96 1fbf f4b2 2c3f
000001a0: e704 183e f813 f6be 2bd3 2dbf 480a 333e
000001b0: 5962 6bbe 3940 b6bd 5f7d 003f 25db 633f
000001c0: f22a 253f 295e 0fbf 98a1 ff3d 6605 41be
000001d0: ba44 783e f220 9e3e 4149 333f 4335 6ebe
000001e0: bc6e 02bf 81c8 013e 8f59 d13e 39ee c2be
000001f0: c7b6 af3b 56e0 be3e 9dca 97be 6bf6 7cbf
00000200: b60f f4bd 394e 983e 0d11 83be 5b19 823e
00000210: 3e41 07bf 3ae6 183e 973a 44bd 5eec 033f
00000220: bd29 243f d16c 0a3e 67c4 87be 621c 5c3d
00000230: 1e98 2fbd 7d0d 333e 3f76 1dbf 8446 6abe
00000240: 8a66 fe3d 1654 1fbd b4c3 623f 3444 77bd
00000250: fbbe 92be fb65 a03e 8205 1bbd b9f1 c03e
00000260: 82fc 9dbe e4a8 98be 9be0 73bd b23c c7be
00000270: 2391 d4bd c378 9b3d 4dd7 81bd fc30 06bf
00000280: 7625 24bf 3891 44be 7e0a 36bf c5e9 3cbe
00000290: 7515 453e 2368 08bf bad7 4bbf 457d 143f
000002a0: 7a3f 0b3f 4c69 61be a376 013f 532c 463f
000002b0: 6af0 13bf e58c 66be f011 9d3e f4f3 5c3f
000002c0: a9ee 23bf 45f1 9cbe 0d20 f8be 0a5a e13b
000002d0: d72a d0be 9d6e bbbe a91e 17bf 011e a63f
000002e0: f320 523f 3f0c 03bf 6fc4 02ba 04bd fa3e
000002f0: b727 a7bb 3c46 57bf fac5 1d3f 445c 2abf
00000300: 8b2a d63e 836d d23e 3fc1 883e 2e30 94bd
00000310: b255 cebe c987 d43e 1e19 30bd 4135 d53e
00000320: 3623 36be 0143 1b3d 82b4 47bf e49d 19bf
00000330: dcc4 cdbd 5e31 713e 248f 05bf 3005 4bbf
00000340: e2d1 353f 893b b6bd 7289 37be 1803 39bf
00000350: 249d ac3e 3783 bbbc 1d2f 60bd 0a07 14bf
00000360: da49 733e 4736 3cbe dda0 f03b dd42 1cbf
00000370: 0cb4 39be 4257 603e fe98 c53d 5078 78bd
00000380: 5fc6 6f3d 7b97 33be 82c5 d43e 7ccb a13d
00000390: c0c6 333d f9ad 4fbc 1569 f13e 1db5 bcbe
000003a0: 3028 8ebe df34 b63d 8af9 fc3d 5ffa e83b
000003b0: dc08 40bd cc31 0f3e 6ac3 1b3f 1ed9 a1be
000003c0: 42db 70bf fd93 6bbf 1083 ed3e 8a43 f73e
000003d0: b64b 883d 4be9 13bf 7bbc 49bf 1f66 0e3f
000003e0: 3ea1 2c3f e9ba 893e 7104 103f 0f34 3f3e
000003f0: bcc4 b5bc 86b8 c2be 9923 ad3e 2902 b83c
0.4171193 0.17658944 0.23382896 -0.4228354 -0.08717279 -0.31913075 0.4884045 -1.0055801
-0.25920767 -0.2784736 0.2801631 0.28304198 0.38332674 -0.3226699 0.32150984 0.4918147
0.83851033 3.0999603e-05 -0.27032083 -0.18624206 0.17782512 0.37376648 -0.018223157 -0.18519494
-0.1003596 0.2694437 0.06374333 -0.9145265 -0.30254272 0.35815367 -0.73621297 -0.39619127
0.18200538 0.124478035 0.25985903 0.10648262 -0.068011336 0.12552038 0.9138826 0.37486613
-0.053425264 0.31776264 -0.31793875 -0.67933005 -0.31363302 0.30462375 -0.2573874 -0.21020015
-0.110682875 0.14008762 0.8572128 -0.14672291 -0.33067057 0.31604978 0.2962747 0.0045239953
-0.039854255 0.33169153 -0.14774217 -0.15507516 0.31223208 -0.26139107 -0.6177805 0.093935445
0.8222136 0.39736676 0.22827369 -0.46043053 0.2069996 0.7855282 0.81543356 -0.42299625
-1.3365723 0.25625795 -0.62106246 -0.39765093 -0.21969284 0.7893263 -0.35877156 -1.2714605
-1.1309997 0.08069363 -0.3977424 0.04621464 0.26567838 -0.33079904 -0.52868307 0.18700875
0.5043353 -0.585802 -0.058036502 1.02088 -0.700025 -0.26533547 0.45235083 0.5951458
-0.26040217 0.27186558 0.43170476 0.3707406 0.13544261 0.07947897 -0.62339485 0.6746056
0.1484562 -0.4806211 -0.6790034 0.1748439 -0.22986735 -0.08898968 0.501913 0.89006263
0.64518654 -0.5600305 0.124819934 -0.18849716 0.24244967 0.3088451 0.7003365 -0.23262505
-0.5095022 0.12674142 0.4088864 -0.38072374 0.005362365 0.3728053 -0.2964677 -0.98813504
-0.11917059 0.2974718 -0.25598946 0.2540997 -0.52833927 0.14931574 -0.047907438 0.5153254
0.6412619 0.13518073 -0.2651703 0.053738005 -0.04286968 0.17485614 -0.61508554 -0.22878462
0.124219015 -0.03889855 0.8857987 -0.060367778 -0.28661332 0.31327805 -0.03784705 0.3768442
-0.3085671 -0.29816353 -0.059540372 -0.38913494 -0.10379245 0.07591393 -0.063398935 -0.52418494
-0.6411966 -0.19196022 -0.7110976 -0.18448551 0.19246466 -0.532839 -0.7962605 0.58003646
0.5439373 -0.22012824 0.5057165 0.77411383 -0.5778872 -0.22514684 0.30677748 0.8630974
-0.6403604 -0.30652824 -0.48461953 0.0068771886 -0.40657684 -0.3660783 -0.5903116 1.2977906
0.82081527 -0.5119056 -0.00049883773 0.48972332 -0.00510117 -0.84091544 0.61630213 -0.66547036
0.41829333 0.41099176 0.26709935 -0.07235752 -0.40299755 0.41509846 -0.042992704 0.41642192
-0.1778687 0.037905697 -0.7800981 -0.60006547 -0.100473136 0.23553988 -0.5217154 -0.7930479
0.7102338 -0.08898074 -0.17923525 -0.72270346 0.3371364 -0.022889717 -0.05473243 -0.5782324
0.23758641 -0.1838008 0.007343395 -0.61039525 -0.18135089 0.21908286 0.096483216 -0.060661614
0.05853879 -0.17538254 0.41556937 0.0790014 0.043890715 -0.012675756 0.47150484 -0.36856928
-0.27765036 0.08896803 0.12352283 0.0071099247 -0.04688345 0.1398384 0.60845053 -0.3161096
-0.9408456 -0.9202269 0.46389055 0.48293716 0.06655066 -0.5777785 -0.78803223 0.55624574
0.67433536 0.26900414 0.5625678 0.18672203 -0.022188537 -0.38031405 0.3381622 0.022461968

encoder.1.lstm.bias_ih_l0_reverse f4 [64]
00000000: d0de 253f e226 96bd 8f6c babd 1068 7d3d
00000010: ffe4 43bf ae04 4c3f b6ba b93d 1459 01be
00000020: af7c 0ebd 226a 98be 8cea 273f 7eb9 2f3f
00000030: 86ae 20bf b078 81be 099b 143e 2ed0 773f
00000040: 3745 55be ce73 66bc aae7 32bf 3e6a afbd
00000050: 0f1b c33e c6ea cf3f b1c6 88be c2cf 1dbf
00000060: bbc7 abbe a4c7 61be bf6a 173f bffa f1be
00000070: 234c f13e ec2d cb3d d10a 013d 98bf 89bf
00000080: a003 02bf 5cdb 14be f9e3 913b 9107 0e3c
00000090: 8051 5c3c a5b9 4abe fab9 cdbe a6f7 c13e
000000a0: e7dd a7be 92a3 c23c 065f a43e 1267 7bbe
000000b0: 4093 b5bd 1c42 83bd 10df e23c 809d b0bc
000000c0: 4b1b d5bc 4940 fbbd 28af f6be 4542 dcbb
000000d0: 8dd2 8fbe 450a e8be 8304 37bf 9f5d 4a3d
000000e0: deb4 12be a0c4 60be 66eb dcbd d7c0 573f
000000f0: 357e dfbd fe30 47bf da44 b4be 003a 823f
0.6479311 -0.07331635 -0.09102737 0.06186682 -0.76521295 0.7969464 0.090688154 -0.12631637
-0.034786876 -0.29768473 0.65592265 0.68642414 -0.627663 -0.2528739 0.14512266 0.9680203
-0.20827185 -0.014065696 -0.6988474 -0.08565186 0.38106582 1.6243522 -0.2671409 -0.6164514
-0.3355082 -0.22048813 0.59147257 -0.47261617 0.471284 0.09920868 0.031504456 -1.0761595
-0.5078678 -0.14536804 0.0044522253 0.008668796 0.0134471655 -0.1979738 -0.4018095 0.37884253
-0.32786486 0.023759637 0.32103747 -0.24551037 -0.08865976 -0.06409094 0.027694255 -0.021559477
-0.02601399 -0.12268121 -0.4818051 -0.006721767 -0.28090325 -0.45320335 -0.7149126 0.04940569
-0.14326808 -0.21950006 -0.10787086 0.84278625 -0.10912744 -0.7780913 -0.3520878 1.017395
